model205551_lr3e-3.pt (torch, 3463 bytes, 7 tensors)

fc.0.weight f4 [5, 20]
00000000: 6742 e9bc 9689 0d3e e227 ac3c 581c b23e
00000010: 593e e2bd 5dab 03bf d4a0 b9bd fbfb 8e3d
00000020: ea71 abbe e1f2 7b3e 8f77 e4bd 3279 44bd
00000030: 3d19 8b3f a4bb 95be bdc6 50bd f69f c53d
00000040: 53b4 0fbd a2f0 77bd a0ce 273e 7430 3e3e
00000050: 2f2c 1b3e e708 4bbe 6c61 a8bd 1423 903d
00000060: bb83 7fbe 7ffa 043c fef3 ffbd 0b99 613e
00000070: a103 0abe a6dd 85bd 2ec9 2e3e 066f b73d
00000080: 7eff 0a3f 1cc4 0b3e d63d 723e f9a3 95bc
00000090: 473b 9a3d fc57 473e d759 e13d 2aa7 aebc
000000a0: 0eff 383e 17af 50be 2a6c 03be b361 163e
000000b0: 2dde 483d 68e8 9a3d 93e5 143e a7a0 2d3d
000000c0: 20fc d6bc 49e9 903d 1a4e 47be f717 5a3d
000000d0: 84f9 01be d8c8 4fbe 9e5d c23b 7749 d4bc
000000e0: 0f9d e2bb ce71 b7bd da4e 083e 3861 74bd
000000f0: 758d c4bd ff8e c23d 1520 313d ec3d e0bd
00000100: cc15 ca3c cbdd 843d b97f 913d f999 2b3e
00000110: 2a1d a13c c647 b63e aabf 60bd 8e64 1f3e
00000120: 9e4d 153f 1c6d 01be 980e f2bd b43e a8bd
00000130: bf7d cbbc 1c57 f9bd 8a91 8cbd 66bf 31bd
00000140: defe 32be c631 223d 7661 09be ce0f c33c
00000150: 378c 6dbd cba9 b73c 4087 a8bd 9c74 31be
00000160: 3e27 25be 07b8 983c 3bd8 0f3e 7710 da3d
00000170: 6d4a c7be e8d5 b7bd 6951 eabb 2bc3 413e
00000180: 4ab0 c5bc 294c 5f3e 5cc4 ff3d b7e7 ef3d
-0.028474046 0.13822016 0.021015111 0.3478725 -0.11047048 -0.51433355 -0.09063879 0.06981655
-0.33485347 0.2460437 -0.111556165 -0.047967143 1.0867077 -0.2924472 -0.05097078 0.09649651
-0.03508408 -0.06053222 0.16387415 0.18573171 0.15153573 -0.19827615 -0.08221707 0.070379406
-0.24952595 0.008116364 -0.1249771 0.22031038 -0.13477947 -0.06536417 0.17068931 0.08956723
0.542961 0.13649029 0.23656401 -0.018266665 0.075308375 0.19467157 0.11003464 -0.021319944
0.18066046 -0.20379291 -0.1283423 0.14685707 0.04904001 0.07563859 0.145407 0.04238954
-0.02624327 0.070757456 -0.19463387 0.05324551 -0.12692839 -0.2029146 0.00593157 -0.025913937
-0.0069156955 -0.089572534 0.1331133 -0.059663028 -0.09597293 0.094999306 0.043243486 -0.10949311
0.024668597 0.06487616 0.07104439 0.16757955 0.019667227 0.35601634 -0.054870285 0.15565702
0.5832156 -0.12639278 -0.1181919 -0.08215085 -0.024840234 -0.12174818 -0.06863697 -0.043395422
-0.17480037 0.03959825 -0.13416085 0.023811247 -0.057995047 0.02241983 -0.08228922 -0.17329639
-0.16128251 0.018642439 0.14047329 0.10647672 -0.3892397 -0.08976346 -0.007150818 0.18922107
-0.024131913 0.21806397 0.124886245 0.11714118

fc.0.bias f4 [5]
00000000: b4f1 3a3d dbea 3a3e 9184 fd3d 5d60 1dbe
00000010: 38a5 453e
0.045640662 0.18253653 0.12378801 -0.15368791 0.19301307

fc.1.weight f4 [5, 5]
00000000: 3ef6 8bbf 707d 99be 052b 853e 2f6f bfbe
00000010: d974 f83d ff1a 39bf 8bed c7be a6b1 2ebd
00000020: 2cd8 abbe 5d95 543e 809e 9dbd 81ba 113e
00000030: f6fb c43e 6c1b 42be 659f 7b3d f465 113e
00000040: 8e4a cc3e 3087 403e 3042 3bbe 4fae bd3b
00000050: 2d0d f93d 564f f03d 00cf 123e 4671 fc3e
00000060: 3e13 afbe
-1.0934522 -0.29978514 0.26009384 -0.37389514 0.12131662 -0.7230682 -0.39048418 -0.042649888
-0.33563364 0.20760103 -0.07696247 0.14231302 0.3847348 -0.18955773 0.061431307 0.14199048
0.3990063 0.1880157 -0.18286967 0.0057886015 0.12160716 0.11733882 0.14336777 0.4930517
-0.34194368

fc.1.bias f4 [5]
00000000: 0e79 94be c93c 863b 214d 21be b984 0ebe
00000010: 9a91 5d3e
-0.28998607 0.0040966016 -0.15752079 -0.13917817 0.21637574

fc.2.weight f4 [5, 5]
00000000: 634d 63bf 70c2 5cbe 4352 3b3e eeee fc3e
00000010: 0f65 36bd 9787 973e a29c bb3d 512c 9dbd
00000020: 7c0c 2eba 32b7 9fbe 9701 833e ef20 c33e
00000030: a1fd 993d 7307 5e3e 36a8 00be 0e3e ca3e
00000040: 6565 613e a9db 37be a428 9e3e 90b7 38be
00000050: 7c65 33bf c690 37bf 08a4 c5be 4b9d 953d
00000060: 821a 0a3f
-0.8878996 -0.21558547 0.18293099 0.4940104 -0.04452997 0.29595634 0.09160735 -0.07674468
-0.00066394336 -0.31194454 0.2558715 0.38111064 0.07519079 0.21682529 -0.12564167 0.3950047
0.22011335 -0.17954887 0.3089038 -0.18038774 -0.7007673 -0.7170528 -0.38601708 0.07305392
0.539467

fc.2.bias f4 [5]
00000000: 6723 84be 045d ae3e 4a7b 89be 7998 ccbd
00000010: 4cfe eb3e
-0.2580826 0.3405534 -0.26851875 -0.09990019 0.4609245

fc.3.weight f4 [1, 5]
00000000: a44c 653f d2fa cfbe 7ba2 f8be 3bc9 92be
00000010: d023 893f
0.8957007 -0.40621048 -0.48561463 -0.28669152 1.0714054
